noteboooks/test/model1/model1.pth (torch, 181591 bytes, 6 tensors)

weight f4 [10, 1, 3, 3]
000000 1e a4 9f be 86 00 f4 bd d0 7e 29 be 60 74 3d be
       -0.311799 -0.11914162 -0.16552281 -0.18501425
000010 4f 2a 9f 3e 0a 67 8f be 00 f1 7a 3d 2b 96 00 3d
       0.31086966 -0.280083 0.06126499 0.03139321
000020 70 b8 96 bd 02 5b 9e be 6c 50 a8 be c7 fb 15 3b
       -0.073593974 -0.30928808 -0.32873857 0.0022885667
000030 54 58 83 3e 28 ef 14 be c6 f9 05 bd d1 4b a2 be
       0.25653327 -0.14544356 -0.032708906 -0.31698468
000040 96 0e 81 be 8b aa 8f be bf ff e9 3d 1c cd 6c bd
       -0.2520644 -0.280598 0.11425733 -0.057812795
000050 0e 39 ed bd 58 89 9f 3e 58 a0 86 be 12 c0 90 bd
       -0.11583148 0.31159472 -0.26294208 -0.070678845
000060 83 c2 ed 3d 66 de 3b bd e2 4e 64 be 1b 57 60 3e
       0.11609366 -0.045866393 -0.22295716 0.21908228
000070 3b 28 96 be ab 80 00 be 86 cf 25 3e c2 8e 18 bd
       -0.29327568 -0.12549083 0.16192445 -0.03724552
000080 43 4b b2 be 87 df b8 3d ee 9f 81 3e 8b dc c8 3d
       -0.34823045 0.090270095 0.2531733 0.0980769
000090 74 9b 48 3d 70 d8 12 3e 3c 05 e6 3e 73 98 07 be
       0.048976377 0.14340377 0.4492587 -0.13241749
0000a0 a5 56 a7 bd f9 f6 9d 3e 66 bc 98 be ba 5c 51 be
       -0.08170823 0.30852488 -0.29831237 -0.20445529
0000b0 33 85 cf 3d 71 b3 8e be 21 70 16 3e 49 32 2b be
       0.101328276 -0.27871278 0.14691211 -0.16718401
0000c0 8a a0 bc be 89 61 53 3e 3a 41 99 3e 98 68 8c bc
       -0.36841232 0.20642675 0.29932576 -0.017139718
0000d0 1a d5 f4 bc 64 f3 b8 bd 49 66 f2 3d 8a 6b 8e 3e
       -0.029886771 -0.09030798 0.118359156 0.2781642
0000e0 74 06 bd 3c 19 73 34 3e 7d 71 48 3e 7c 4e 32 bd
       0.023074366 0.17622031 0.19574542 -0.04353188
0000f0 18 59 ff 3d 11 4b 52 bd cc 24 75 be 03 0d b3 3e
       0.12468165 -0.05134112 -0.23939818 0.34970865
000100 30 57 ad 3d a9 50 7e be 48 1c a2 3e ea 89 56 3d
       0.08463895 -0.24835457 0.31662202 0.05237762
000110 e3 13 99 3d b4 68 3c 3e 72 81 50 3e 27 d1 78 3d
       0.07474496 0.18399316 0.2036188 0.06074634
000120 03 3f fe 3d a0 f9 93 3e df 29 f6 3d 3e a3 89 bd
       0.12414362 0.28901386 0.12019705 -0.06720589
000130 19 cf 83 3e 81 0d 8e be dc a3 6e be 51 d8 f2 3d
       0.2574394 -0.27744678 -0.23304695 0.11857665
000140 58 be c1 be e2 d6 c9 3e a7 43 e5 3e c8 21 5e bd
       -0.37840533 0.39421755 0.44778177 -0.054231435
000150 82 19 b0 3e d4 cd ed 3e 6f 95 d2 3e 4d 72 ab be
       0.3439446 0.46446097 0.41129634 -0.33485642
000160 b9 60 04 3d 1e a3 c2 3e
       0.032318804 0.38015074

bias f4 [10]
000000 94 ca 82 be 2c aa a2 bd d1 4b 54 3e e4 36 0d 3e
       -0.2554518 -0.07942614 0.20732047 0.1379047
000010 1a cd 95 bd 2b a0 a3 3e 11 3b 65 3d 03 66 1e be
       -0.07314511 0.31958136 0.055964533 -0.15468602
000020 8a 87 85 3d 83 c9 c5 3d
       0.06519993 0.09657576

weight f4 [10, 10, 3, 3]
000000 d2 d5 a9 3d 47 82 c7 3d f9 2b 28 3d 49 3f 96 3d
       0.08292736 0.09741645 0.04105756 0.073362894
000010 85 87 aa 3d d6 04 d2 3c fb 94 a6 3d 3a af c8 bd
       0.083266295 0.025637072 0.081338845 -0.09799047
000020 c5 4f 34 3c bc f6 06 3d ce 20 c0 3c e5 0b 52 3d
       0.011005347 0.032950148 0.023453142 0.051280875
000030 a9 33 92 3d 1c 9b 13 ba 82 8f a1 3d 87 a1 bb 3c
       0.0713876 -0.0005630718 0.078887 0.02290417
000040 6a d2 68 bd 4e 01 94 3c 8c 79 5f 3e 3e f7 97 3d
       -0.05684129 0.018067028 0.2182371 0.074202046
000050 a5 75 c5 bd b5 98 a8 3e ef 15 2b 3d b2 4c 55 be
       -0.096415795 0.32929006 0.041768964 -0.20830038
000060 a4 fd 97 3e bb f2 3f 3e 24 d2 6c be 13 d6 51 be
       0.296857 0.18744938 -0.23127037 -0.20491819
000070 b1 27 a3 be df fa 03 bd 89 22 fa 3d 3d a7 22 be
       -0.3186622 -0.03222167 0.12213618 -0.15884109
000080 64 cf 01 be ed d3 ea 3e 70 72 3e 3e 8c dd 38 be
       -0.1267677 0.45864812 0.18598342 -0.18053263
000090 1e 7b 76 3e 2e bd 8b 3e 67 58 ef 3d 83 98 bd 3d
       0.24070403 0.2729277 0.11686783 0.09257605
0000a0 6b ae 88 3e fc d9 8e 3e 44 76 b5 bd 86 15 31 3e
       0.2669557 0.27900684 -0.08860448 0.17293367
0000b0 9c e1 96 3e 83 87 89 3c 22 96 91 bd 01 75 e8 bc
       0.29469 0.01678825 -0.07108714 -0.028376104
0000c0 0a e8 27 bd b2 1f 32 3d 29 2e 36 3e 2d 3a 63 bc
       -0.040992774 0.04348726 0.17791046 -0.013868851
0000d0 8e 36 1e 3e 5c f7 4f 3e 45 a0 78 3d eb 13 91 3d
       0.15450498 0.20309204 0.06069972 0.07083877
0000e0 2b fc 45 3d 4e 15 be 3d 12 1a 88 bc be 12 b7 bc
       0.04833619 0.09281407 -0.016613994 -0.022347804
0000f0 3c 2d 66 3c e6 c0 ae bd 6b 69 52 bd 3d d7 da bd
       0.014048871 -0.08532886 -0.051370066 -0.10685585
000100 9a 33 99 3d 44 7e 1c bd 1e 84 87 bd 14 15 e7 bd
       0.07480545 -0.038206354 -0.06616996 -0.11283317
000110 9a d2 18 be 79 8e de bd c0 39 59 bd 93 02 28 be
       -0.14924088 -0.10867018 -0.05303359 -0.16407232
000120 2c e0 ab 3e 14 62 96 3e f6 1e d0 3c c4 ad 89 3e
       0.33569467 0.29371703 0.025405388 0.26890385
000130 18 23 8b 3e d0 60 ee 3d 6d a8 f8 3d d5 8d 3c 3d
       0.27175212 0.11639559 0.121415 0.0460337
000140 30 e8 c8 3d 16 1e 83 3d 31 d9 16 3e 27 8c 46 3d
       0.09809911 0.06402223 0.1473129 0.048473503
000150 0f 7e 04 be ad 47 01 bd 38 41 a9 3c ed e4 8c bc
       -0.12938713 -0.031562496 0.020660982 -0.017199004
000160 9e ac f8 bd 9a b4 d3 3d bb 63 98 bd 3d 07 e3 3c
       -0.12142299 0.103371814 -0.07440897 0.027713412
000170 03 15 9a 3d 95 d6 b0 bd 43 e1 b0 bc 34 e2 ae bd
       0.07523539 -0.08634678 -0.021591788 -0.085392386
000180 7d 57 1c 3d 03 d7 4d 3d 3b 4b cc bd f2 03 40 3d
       0.038169373 0.05025388 -0.099752866 0.046878763
000190 4f 94 4e 3d 9b a5 78 3d 10 4e b4 bd 87 4e 90 bd
       0.050434407 0.06070481 -0.08803952 -0.07046228
0001a0 4f ff 3c bd e9 32 8e 3d 12 65 ce 3d 67 ca 09 bd
       -0.04614192 0.06943304 0.100778714 -0.03364029
0001b0 14 40 fe 3d 0b b4 22 bd d0 e8 e4 3a 91 3c d9 3d
       0.12414566 -0.039722484 0.0017464403 0.10607255
0001c0 7a 1a 17 3e 92 b1 48 3d 7b fc 12 3e 47 5a 08 3d
       0.14756194 0.04899747 0.14354126 0.03328922
0001d0 c1 62 01 bc 9d b0 cf 3c cd 0d 05 3c 84 4d 00 be
       -0.00789708 0.02535277 0.008120966 -0.1252957
0001e0 48 86 40 3e e1 38 79 3e 76 f1 28 3e 33 79 a7 bc
       0.18801224 0.24338104 0.1649836 -0.020443534
0001f0 bf 3a 46 3e 05 09 d4 3d 7f 1b 1d 3e 8b 8f 1f 3e
       0.19358347 0.10353283 0.1534252 0.15582101
000200 d1 d9 45 ba 51 38 ae 3d 89 ae 21 3d 29 95 c0 3d
       -0.0007547411 0.08506835 0.03947309 0.0940345
000210 49 e2 68 3e 4c 46 50 3e a6 1b 0b bd ab 33 60 bd
       0.22742571 0.20339316 -0.033961914 -0.054736774
000220 98 fc 62 3d d2 70 c3 3d 26 36 b3 3d a9 0b 2d bd
       0.055416673 0.09543003 0.08750562 -0.042247448
000230 39 dc 64 bc 81 9a 84 bc db e5 ce 3d 8a c0 a5 3c
       -0.013968521 -0.016186954 0.10102435 0.020233411
000240 6a 42 c1 bd 72 c6 8b bd e2 b5 ef 3c e5 5b 63 3d
       -0.094364956 -0.0682496 0.029261533 0.05550756
000250 f1 81 27 bd 1e 37 67 3d 44 12 a3 bc 7d 9e f9 3c
       -0.040895406 0.05644905 -0.01990617 0.03047108
000260 4e 9b 59 3d 5f 6a 94 bd 21 a2 f5 bd 1b 06 c8 bc
       0.053126626 -0.07246851 -0.11993814 -0.024416974
000270 24 88 56 bd 4d d4 d5 bd 1e 4d bd 3b 65 3d b0 bd
       -0.052375928 -0.10440884 0.0057770154 -0.0860546
000280 59 68 a1 bd d4 f7 b8 3d 7b ee 0d be 9c 70 90 bd
       -0.07881231 0.090316445 -0.13860504 -0.070527285
000290 bd dd 93 bd 5a 4c 8e bd 2e 42 14 be ea bb 02 be
       -0.072200276 -0.06948157 -0.1447837 -0.12766996
0002a0 66 9f 57 be 6f 2a e8 bd fb 44 55 3c bd 77 06 be
       -0.210569 -0.113362186 0.0130169345 -0.13131614
0002b0 30 dc 4b bc ad b3 0e bd 6d 23 62 3d 78 1a 4d 3d
       -0.0124426335 -0.03483932 0.055209566 0.05007407
0002c0 47 d0 01 be 67 22 d5 3c 46 74 0a 3d d6 75 08 bd
       -0.12677108 0.02601738 0.033802293 -0.033315502
0002d0 09 1f 61 3b 6b 59 2c 3d 71 71 7b 3d 84 24 a5 3d
       0.0034350774 0.042077463 0.061387483 0.080636054
0002e0 55 38 64 bd 14 17 27 bb 55 d5 81 3d 79 3c bf bd
       -0.055717785 -0.0025495933 0.06339518 -0.09337706
0002f0 4d c8 b8 b9 99 d0 b2 bd 4d c1 b0 3d 07 49 ac 3d
       -0.0003524445 -0.08731193 0.08630619 0.08412366
000300 28 da a5 3c 57 9b be 3c 00 c5 9a 3d 2d 55 1f 3d
       0.020245627 0.023267431 0.07557106 0.03889959
000310 3a fe 8a bc 98 b3 0e 3d 6c 8f 5d be 60 fd b1 be
       -0.016966928 0.034839243 -0.21636742 -0.34763622
000320 9b 35 99 be a6 ff 1e 3e 0f 66 0e be f7 ff 98 be
       -0.2992371 0.1552721 -0.1390612 -0.29882786
000330 59 c2 82 3e e4 74 55 3e 6c 9a 88 be 91 1a 13 bf
       0.255389 0.20845371 -0.26680315 -0.5746241
000340 56 6c f6 be d9 34 2e 3e 92 46 56 bd e4 06 3d bf
       -0.4812953 0.17012347 -0.052313395 -0.7383864
000350 25 5f df be 91 39 1f 3f 74 f3 32 be 0c ab 1d bf
       -0.43627277 0.62197214 -0.17475682 -0.6158912
000360 73 c0 13 3f bd c2 05 3f 4c 00 90 3e 2b b4 a9 3e
       0.5771553 0.5225027 0.28125226 0.3314527
000370 14 c3 fc 3e d8 b6 f3 3e 4b b4 85 be 13 db 67 3e
       0.49367583 0.47600436 -0.26114115 0.22642164
000380 15 87 eb 3e 36 4d 3e 3e d1 3d 1d 3e 63 c2 47 bb
       0.46001497 0.18584141 0.15355612 -0.0030480854
000390 96 24 88 3d 3c 29 d3 3d 2b da 53 3d 56 22 bc bd
       0.06647603 0.10310599 0.051721733 -0.091862366
0003a0 ab a2 99 3d ae 6d 41 3e e5 c2 99 bc 6e f2 c5 3d
       0.075017296 0.18889496 -0.01876969 0.096653804
0003b0 03 9e 46 bd d3 d8 ac 3c be 74 7e 3d 19 15 04 bd
       -0.048490535 0.021099484 0.062123053 -0.032246683
0003c0 f4 64 d1 bd 54 21 69 bd 1b 57 97 3d 30 e6 8c bd
       -0.102243334 -0.05691655 0.07389661 -0.06879842
0003d0 12 6c f5 3d fb 1d 1e 3e 38 74 3a bd cc 1e 26 be
       0.119835034 0.15441124 -0.04552099 -0.16222686
0003e0 48 bf 6c bd 8f 22 34 bd 4a 3c 83 be 00 aa c4 bd
       -0.057799608 -0.04397827 -0.25631934 -0.096027374
0003f0 1f 85 aa 3e 03 32 3a 3e 6b 55 ad bd f4 13 23 3e
       0.33304688 0.1818314 -0.08463558 0.1592558

bias f4 [10]
000000 5d 20 5d 3b f3 54 9d 3d 37 ca d3 3d 56 11 12 be
       0.0033741214 0.076822184 0.10341304 -0.14264426
000010 8c 50 6c 3d 1b 56 42 3c 94 2d da bd 94 c3 a0 bc
       0.057694003 0.011861349 -0.106532246 -0.019624509
000020 27 02 a7 bd 6d 6a 13 be
       -0.081547074 -0.14396067

weight f4 [9, 4840]
000000 4c 46 31 3d 7e 3a 07 3d 1a 80 26 3d 84 18 cf 3b
       0.04327993 0.033014767 0.04064951 0.006320061
000010 3e fb 30 3c 53 2a 08 3d 86 3f 8a 3d 10 4d 2b 3d
       0.010802088 0.03324349 0.067503974 0.04182154
000020 25 48 ed 3c 89 01 f5 3b 8d af 9c 3c 77 2f 01 3d
       0.028965065 0.0074769896 0.019126678 0.031539407
000030 a6 40 15 3c 49 6a 1d 3d 16 f6 f5 3c d1 b1 82 3c
       0.009109652 0.03843144 0.03002457 0.01595393
000040 4a 7d 75 bc 41 ed 91 bb 3e 17 af 3c d3 c2 aa 3c
       -0.0149834845 -0.0044533317 0.021373387 0.020844853
000050 57 20 e8 3b c7 02 81 ba 36 4b dd 3a 81 86 84 3c
       0.0070839333 -0.0009842747 0.0016883377 0.016177418
000060 ff ca 16 3c 2c 42 9f bc d4 1b b3 39 3b 7e 0e 3d
       0.0092036715 -0.019440733 0.00034162274 0.03478835
000070 8b 3c 4b 3d 19 79 53 3d 93 72 8d 3c fa f5 c4 3b
       0.049618285 0.05162916 0.017266547 0.006010768
000080 67 e9 cf 3b f2 36 d4 3b af a4 1e 3c 11 84 37 3d
       0.0063449624 0.0064762766 0.009682818 0.044803683
000090 f7 7d 36 3d 7e ae 72 3d 04 9c 86 3d 6f 39 15 bc
       0.044553723 0.05924844 0.06572726 -0.0091079315
0000a0 0e 1b 81 bc 55 69 1e 3b 1b e0 b8 3c e6 cb 6c ba
       -0.015759971 0.002417167 0.0225678 -0.0009033069
0000b0 18 7e be 3c 29 20 6e bb 0c 73 f5 3a b9 4a 0c bc
       0.023253486 -0.0036335087 0.0018726303 -0.008562737
0000c0 d6 b6 c4 3b 9e 3c 24 3d 2c b2 13 3d bb 6b d7 3c
       0.006003241 0.04009687 0.03605859 0.026296487
0000d0 69 4f 5d 3c f4 59 9f 3b e2 ff e6 3c bc 95 d7 3c
       0.013507702 0.004863018 0.028198186 0.026316516
0000e0 1e 82 27 3d d1 eb ad 3c 6c 4f d8 3c e7 1f f0 3c
       0.040895574 0.02123061 0.026405059 0.029312087
0000f0 f0 8b 70 3d 63 8c a5 3c 85 49 10 bc 47 42 94 bb
       0.058727205 0.020208543 -0.008806591 -0.0045245024
000100 04 25 c4 bc 7e 3d ad bb dd a9 cd b7 e6 b5 b2 3c
       -0.023943432 -0.0052868715 -2.4517003e-05 0.021815252
000110 1a 04 ba 3c 08 7c 03 bd 75 f2 a3 bc 20 89 0e 3c
       0.022707034 -0.032100707 -0.020013073 0.008699685
000120 54 da 12 bb 1e 9e 8b 3c 4b 04 88 3d 86 67 4e 3d
       -0.0022407966 0.01704317 0.06641444 0.050391696
000130 fe 3a 7d 3d 0f a7 87 3d 10 6c a4 3d b2 04 9b 3c
       0.061823837 0.06623661 0.08028424 0.018923137
000140 cb bd 8a b8 dd c5 41 3c 53 16 39 3d 4e 6a 0a 3d
       -6.6157045e-05 0.011826959 0.045187306 0.033792786
000150 94 bb 85 bc 6b 07 d5 3c 03 6d 06 bd c4 34 69 bc
       -0.016324796 0.026004514 -0.032818805 -0.014233772
000160 5d d2 26 bc 16 26 81 3c 8c 41 fe bb e4 e2 96 3b
       -0.01018199 0.015765231 -0.0077592786 0.004604684
000170 fe 53 8f 3c 2a 8f 20 3c ed f8 0e 3d 71 a8 93 3c
       0.017496105 0.009799758 0.034905363 0.018024655
000180 d9 63 50 3c 7c 5a 4f 3d 47 37 a2 3d 28 3e 68 3d
       0.012719118 0.050623402 0.079206996 0.0566999
000190 a8 83 78 3d 1c b2 d2 3c 32 16 9b 3c 14 20 06 3d
       0.060672432 0.025719695 0.018931482 0.032745436
0001a0 26 ec 91 3c 2d af 0b 3d 95 03 5b bb ba 4d 74 3c
       0.0178128 0.034102608 -0.0033418883 0.01491111
0001b0 2d 66 cf bb 8e 53 d5 bc 10 80 3e bc b3 eb 93 bb
       -0.006329319 -0.026040819 -0.011627212 -0.0045141815
0001c0 2f 54 87 3c 7f a3 1d 3c a5 0d 5e 3d 42 58 13 3d
       0.016519634 0.0096215 0.05421223 0.03597284
0001d0 0f 20 3e 3d 64 fd 8f 3c 4a 9d 02 3d 8a 58 14 3d
       0.046417292 0.01757688 0.031888284 0.03621725
0001e0 34 2f 36 3d 7e 38 1e 3d 85 76 7c 3d ad 1f 76 3d
       0.04447861 0.038628094 0.061636467 0.060088802
0001f0 f0 bd 20 3d 0d 4a 0d 3d 09 c3 a2 3c 69 06 77 3c
       0.03924364 0.03449445 0.01986839 0.015077212
000200 56 a3 3a 3c a7 90 31 3c 4e 03 8c bc af b6 bf bb
       0.011391481 0.01083771 -0.01709142 -0.005850635
000210 c2 7e 40 bd 12 a1 da bc 3e ae 22 bc 62 fd 91 3c
       -0.046995886 -0.026688132 -0.009929238 0.017821018
000220 d8 d7 07 3d c3 d5 b4 3c ca bd 17 3c 2c f5 b7 3c
       0.03316483 0.022074586 0.009261558 0.022455774
000230 68 2d 88 3d d6 42 bd 3d 2f 96 a8 3d 7a 02 84 3d
       0.066492856 0.092412636 0.0823177 0.06445785
000240 84 8e bb 3d d1 44 c0 3d cc 0e 99 3d d4 1c 60 3d
       0.09158042 0.09388126 0.074735254 0.054714993
000250 0a f5 0a bc 93 bb 6a bc f1 e1 b6 3a d0 0f 4e 3b
       -0.008481273 -0.014326948 0.0013952834 0.003144253
000260 34 1f de bb 72 5b e8 3c 02 2b bb bc 98 6e 86 bc
       -0.006778622 0.028363917 -0.022847656 -0.016410157
000270 47 ff 91 3b 53 18 0c 3d 95 42 32 3d a9 f3 82 bc
       0.0044554803 0.034202885 0.04352053 -0.015985327
000280 76 a8 a0 3c 93 3c 9f 3c a4 10 6f 3d 0f eb be 3d
       0.019611578 0.019438064 0.05836548 0.093221776
000290 42 3f 86 3d 86 87 ba 3d b8 14 9c 3d 61 c5 cc 3d
       0.06555034 0.0910788 0.07621139 0.099985845
0002a0 a2 b8 12 3c 3f 47 a1 3c 74 98 2e 3c 0a 5d 33 bd
       0.008955153 0.019687293 0.010656465 -0.0437899
0002b0 70 f7 b9 bc e3 b7 23 bb fa 7b a9 bb fc fb f4 3c
       -0.022700995 -0.0024981431 -0.00517225 0.029905312
0002c0 be fd e8 bc f1 53 bf 3b 25 3d 96 3b ec 8c d0 3c
       -0.028441306 0.005838864 0.0045849257 0.025457822
0002d0 af 9d 54 3d 3a 35 f8 bc 20 81 f3 3b 09 8f 01 bc
       0.05190819 -0.030298818 0.0074311644 -0.007907637
0002e0 7c bf 27 3b 79 dc 24 3d 02 e4 5c 3d f8 ae 49 3d
       0.0025596311 0.04024932 0.053928383 0.04923913
0002f0 c1 29 0e 3d 5b 05 84 3c 0b e4 85 3c ea 8d f3 3c
       0.03470779 0.016115835 0.01634409 0.029730756
000300 b3 57 10 3b 52 6d e4 bc bf b5 87 bc a1 5f 04 bd
       0.002202493 -0.02788416 -0.016566155 -0.03231776
000310 39 63 9f 3b 27 26 75 bb b8 f7 b2 bc a9 80 d7 3a
       0.004864123 -0.0037406774 -0.021846637 0.0016441542
000320 9b ea 07 bc 39 6e dd 3b eb c2 c6 3c 98 f0 84 bb
       -0.00829568 0.0067575243 0.024262866 -0.0040570013
000330 e6 59 c6 bc a6 de e6 bb f2 f4 d0 3c ed 9a 97 3d
       -0.024212789 -0.0070455847 0.025507424 0.074025966
000340 3a b7 88 3d a1 16 06 3d 31 92 33 3d e0 64 45 3d
       0.06675573 0.032736424 0.04384059 0.048191905
000350 81 7d 8b 3d e2 ef 66 3c b6 0e d6 bc bb fc 12 bd
       0.06811047 0.014095278 -0.026130062 -0.035885554
000360 c3 b4 07 bd 21 98 c5 bc 1b 20 b8 bb 6c 64 ec 3c
       -0.033131372 -0.024120392 -0.0056190616 0.028856479
000370 95 09 4c bc 49 6f ec 3c 2f 5c 5c 3b 44 50 35 3d
       -0.012453456 0.028861659 0.0033624282 0.044266
000380 2c d1 72 3d 52 e0 72 3d 23 21 18 3d 1a ca e8 3c
       0.059281513 0.05929596 0.037140977 0.028416682
000390 6e 6f 60 3d 51 87 b9 3d 10 54 c5 3d 22 bd 58 3d
       0.054793768 0.09059013 0.09635174 0.052914746
0003a0 ac e6 6a 3d 72 6f 83 3d ef a8 82 3d b7 88 8d 3c
       0.057348892 0.06417741 0.06379878 0.017277105
0003b0 54 55 b1 bc 09 a8 2d bd a5 82 be bc 52 03 25 bd
       -0.021647133 -0.04239658 -0.023255656 -0.04028637
0003c0 09 58 0c bd 07 6c 81 3c 9e 45 70 3b 49 2b e3 3c
       -0.034263644 0.015798582 0.0036662589 0.0277306
0003d0 f1 91 45 3d 7d 6f 52 3d 14 41 d5 3d 82 7e 62 3d
       0.048234884 0.051375855 0.10412803 0.05529643
0003e0 a1 ae 9b bc 4f dd 8b bd 88 74 87 bb d0 08 20 3d
       -0.019004168 -0.06829321 -0.0041337647 0.039070904
0003f0 94 a0 04 3d 1c 41 45 3d 9d 52 2a 3d 10 9b 48 3d
       0.0323797 0.048157796 0.041582692 0.048976004

bias f4 [9]
000000 5e 3f 8a 3c 3f 4d 76 bb b7 30 d7 bb 81 e0 96 bb
       0.016875919 -0.0037582663 -0.0065670866 -0.0046043997
000010 0e 63 a3 bc 33 f3 bc ba ee 29 c6 bc 88 51 14 bc
       -0.019944694 -0.0014415741 -0.024189916 -0.009052642
000020 84 f6 c6 bc
       -0.02428747
